pyRSD/data/simulation_fits/b2_00_fits_runPB.npz (npz, 894 bytes, 4 tensors)

b2_00_d f8 [5]
000000 86 46 33 10 34 be b7 3f 00 00 00 00 00 00 00 00
       0.0927460231353284 0.0
000010 49 04 dc 7f b5 3d e0 bf 00 00 00 00 00 00 00 00
       -0.5075328347449012 0.0
000020 32 7a b3 b7 87 2e de 3f
       0.47158997478064457

b2_00_a f8 [5]
000000 c9 7f 79 4c d5 13 81 3f 00 00 00 00 00 00 00 00
       0.008338610073394552 0.0
000010 ee 3a 4b e1 06 17 db 3f 00 00 00 00 00 00 00 00
       0.42328044892648975 0.0
000020 3b 26 87 22 be 1c ed bf
       -0.9097586321233345

b2_00_c f8 [5]
000000 15 6d 90 4e 58 10 ab 3f 00 00 00 00 00 00 00 00
       0.05285907706294261 0.0
000010 b0 6c 3b 75 a4 39 a1 3f 00 00 00 00 00 00 00 00
       0.03364290171676865 0.0
000020 f2 e1 e8 b1 0d 3f e3 bf
       -0.601446959953192

b2_00_b f8 [5]
000000 81 fe 01 08 0e ef 9e 3f 00 00 00 00 00 00 00 00
       0.030208796728855795 0.0
000010 b0 95 74 db 0b 35 d4 3f 00 00 00 00 00 00 00 00
       0.3157376902693967 0.0
000020 0d 26 90 81 cf 4a e4 bf
       -0.6341321497467917
